Assignment_2/model.ckpt (torch, 618624 bytes, 4 tensors)

layers.0.weight f4 [50, 3072]
0	0x3d02c43d	0.03192543
1	0x3d438cff	0.047741886
2	0x3d1ed195	0.03877409
3	0x3c424234	0.011856604
4	0xbc19f350	-0.009396389
5	0x3b57fe77	0.003295807
6	0x3b5d8d97	0.0033806318
7	0x3b98a60f	0.0046584676
8	0x3cc6d4f4	0.024271466
9	0x3c5c5ed8	0.013450347
10	0x3c462a66	0.0120950695
11	0x3bcf002e	0.00631716
12	0xba1d43b6	-0.00059991644
13	0x3c72c4e5	0.014817451
14	0x3cc621d4	0.024186052
15	0x3d37f2c8	0.04490927
16	0x3d0a6414	0.03378685
17	0x3cf3f427	0.029779507
18	0x3cce7109	0.025200384
19	0x3c29c1f3	0.0103611825
20	0xbc4828ab	-0.012216727
21	0xbbe5b657	-0.007010262
22	0x3b8d0c4d	0.004304445
23	0xbb0cd940	-0.0021491796
24	0xbc180f00	-0.00928092
25	0xbd0a089f	-0.033699628
26	0xbce69181	-0.028145554
27	0x3c0855c6	0.008321231
28	0x3c9d874a	0.01922955
29	0x3c888a4e	0.016667511
30	0x3d8e3bba	0.06944986
31	0x3dd75469	0.10514147
32	0xbbd285f2	-0.006424659
33	0x3c0feb77	0.008784167
34	0x3c4861e5	0.012230371
35	0xbba217ab	-0.004946669
36	0xbcbe31e9	-0.023217158
37	0xbc729afa	-0.014807457
38	0xbc30c7c9	-0.01078982
39	0xbc878b45	-0.016545901
40	0xbba95739	-0.0051678685
41	0x3aade909	0.0013268302
42	0x3ba4e9b6	0.0050327433
43	0xbb8c87ca	-0.0042886483
44	0xbca87543	-0.020563727
45	0xbad7b8cf	-0.0016458275
46	0x3c937dab	0.01800426
47	0x3c76551a	0.015034938
48	0xbc4ad422	-0.012379678
49	0x3ab6a322	0.0013934115
50	0x3c1dc005	0.009628301
51	0xbb89561b	-0.004191173
52	0xbb1ffe39	-0.0024413003
53	0xbc0fecf6	-0.008784523
54	0xba27da8c	-0.00064031105
55	0x3c47f337	0.012203983
56	0x3ca0cbfc	0.019628517
57	0xbca51f8c	-0.020156644
58	0xbceef7d3	-0.029170906
59	0x3c17e25e	0.009270279
60	0x3c10ba68	0.008833505
61	0xbc2c6c84	-0.010523919
62	0x3d146087	0.03622487
63	0x3d8fe2d8	0.07025689
64	0x3b19c0b6	0.0023460812
65	0xbc6f76e0	-0.014615744
66	0xbc43bb4b	-0.01194651
67	0xbcadaae1	-0.021199645
68	0xbcb73370	-0.022363394
69	0xbb8ea97c	-0.0043537
70	0xbbb4cc43	-0.005517514
71	0xbc9e048a	-0.019289274
72	0xbc789649	-0.0151725495
73	0xbc98e713	-0.018664872
74	0xbc950319	-0.018189954
75	0xbcb73fcb	-0.022369286
76	0xbcb8d6d2	-0.022563372
77	0xbc5f74d6	-0.013638696
78	0xbc8ae105	-0.016953
79	0xba135d2f	-0.00056214904
80	0xbba7693b	-0.00510898
81	0x3bd14c3b	0.006387261
82	0x3aa03866	0.0012223839
83	0xbcc6a0b4	-0.024246551
84	0xbc8c1643	-0.017100459
85	0xbc910013	-0.01770023
86	0xbc043dec	-0.008071404
87	0x3b95f2f6	0.0045760823
88	0x3cc9cb16	0.024632972
89	0x3bb6affd	0.0055751787
90	0xbbc7ca6e	-0.0060971295
91	0x3c4f0afd	0.012636897
92	0xbb770ffd	-0.0037698739
93	0xbcdd81c5	-0.027039418
94	0x3c7639bd	0.015028414
95	0x3d71ad07	0.059002902
96	0x3c3ff0ba	0.0117151085
97	0xbba9f142	-0.005186231
98	0xbcf737b0	-0.030177921
99	0xbd04bfa0	-0.03240931
100	0xbc915f7b	-0.017745724
101	0xbc22affb	-0.009929652
102	0xbceb0412	-0.028688464
103	0xbd1a0eab	-0.037611645
104	0xbd1764a9	-0.03696123
105	0xbd47eb92	-0.04880864
106	0xbd1d2676	-0.038366757
107	0xbd140256	-0.03613504
108	0xbc40a554	-0.011758167
109	0xbca25350	-0.019815117
110	0xbd37d48d	-0.04488044
111	0xbc8a631e	-0.016892966
112	0xbce2d7ec	-0.02769085
113	0xbd129a38	-0.035791606
114	0xbd0ea844	-0.03482844
115	0xbcd7de12	-0.026351009
116	0xbca4863a	-0.020083535
117	0xbcb99de5	-0.022658298
118	0xbcb3a809	-0.021930711
119	0xbba31b48	-0.0049776174
120	0x3c08551c	0.008321073
121	0xbcee5199	-0.029091643
122	0xbd2279e6	-0.039667033
123	0xbcd50498	-0.026003167
124	0xbd0bc027	-0.034118798
125	0xbcbb6134	-0.022873498
126	0x3b51e024	0.0032024467
127	0x3d1424bd	0.03616785
128	0x3c55a480	0.013039708
129	0xbc1fbb3e	-0.009749232
130	0xbbf6c837	-0.0075311917
131	0xbc8a73dd	-0.016900951
132	0xbcbc37ef	-0.02297589
133	0xbc9c11ca	-0.019051451
134	0xbd2a04d6	-0.04150852
135	0xbd598b13	-0.053111147
136	0xbdbce9a5	-0.09224252
137	0xbdb5d37c	-0.08878228
138	0xbd6e8465	-0.05823173
139	0xbcdf4404	-0.027254112
140	0xbd1c1396	-0.038104616
141	0xbd4058ea	-0.046959795
142	0xbca6d7a5	-0.0203665
143	0xba4fe411	-0.0007930408
144	0xbc8b9efd	-0.017043585
145	0xbc97eafa	-0.018544663
146	0xbd018f62	-0.03163088
147	0xbcf3fdd9	-0.02978413
148	0xbcb9e5d6	-0.022692602
149	0xbd08df34	-0.033415988
150	0xbd0158a5	-0.03157868
151	0xbca59dd7	-0.020216865
152	0xbb51dc78	-0.0032022279
153	0xbd1c271b	-0.03812323
154	0xbd12ecd9	-0.035870407
155	0xbc27242b	-0.010201494
156	0xbca5bb3d	-0.020230884
157	0xbc5f6302	-0.013634445
158	0xbc663687	-0.014051086
159	0x3c9cee98	0.01915674
160	0x3c534550	0.012894943
161	0x3c3c1dec	0.011481743
162	0x3c8e05a8	0.017336681
163	0x3c709519	0.014683985
164	0xbb48dc4f	-0.0030648892
165	0x3c3e1a8a	0.011603007
166	0xbc5ed7f8	-0.013601296
167	0xbc3b544b	-0.011433671
168	0xbd3ddae3	-0.046351325
169	0xbd87d1e7	-0.066318326
170	0xbd6d9b31	-0.05800933
171	0xbc7d17a4	-0.015447531
172	0xbd20b442	-0.039234407
173	0xbd076510	-0.033055365
174	0xbcb8124b	-0.02246966
175	0xbd09904a	-0.03358487
176	0xbba7eef4	-0.005124921
177	0x3c9046db	0.017611912
178	0x3b36a50e	0.0027869376
179	0xbc047e56	-0.008086761
180	0xbcbec84b	-0.023288867
181	0xbd10a4fa	-0.035313584
182	0xbcac0941	-0.021000506
183	0xbc5c2762	-0.013437124
184	0xbc33f0b3	-0.01098268
185	0xbc48b9f6	-0.012251368
186	0xbc440161	-0.011963219
187	0x3c9d6063	0.019211
188	0x3cf2b30f	0.029626397
189	0xbbbda656	-0.005787651
190	0xbc313555	-0.010815938
191	0x3c84f689	0.016230838
192	0xbc5293d4	-0.012852628
193	0x3c9eff14	0.01940874
194	0x3cf403f7	0.029787047
195	0x3ce6dbe0	0.028181016
196	0x3c945dc9	0.018111126
197	0x3d0ebb43	0.034846555
198	0x3ca85592	0.020548616
199	0xbc376499	-0.011193418
200	0xbd21400d	-0.039367724
201	0xbd48bbdf	-0.049007293
202	0xbd2b9d31	-0.041897956
203	0xbd008cf5	-0.031384427
204	0xbce5d719	-0.028056668
205	0x3c234c75	0.009966959
206	0x3c01f2ef	0.007931455
207	0xbbe7ac4f	-0.0070701013
208	0x3c8b4f74	0.01700566
209	0x3ca530cd	0.020164872
210	0x3ccead0e	0.025229003
211	0x3d08b321	0.033373956
212	0x3cc75467	0.024332238
213	0x3aa9f24c	0.0012965887
214	0xbb995154	-0.0046788845
215	0x3c8cd712	0.017192397
216	0xbcb382c9	-0.02191295
217	0xbd037896	-0.03209742
218	0xbcdee8a5	-0.027210543
219	0xbbb87abf	-0.005629867
220	0x3bc818c0	0.006106466
221	0xbc54d36b	-0.012989859
222	0x3c388d93	0.011264223
223	0x3c39bf8b	0.011337171
224	0xbc9ba996	-0.019001763
225	0x3bfae13a	0.0076562436
226	0x3ba96182	0.0051690945
227	0x3c6b4f6f	0.0143622
228	0x3ca2c36a	0.019868571
229	0x3c94779f	0.018123446
230	0x3cc26125	0.023727963
231	0xbc93a348	-0.018022195
232	0xbd02753b	-0.03185008
233	0xbca86397	-0.0205553
234	0xbd143549	-0.03618363
235	0xbd34f429	-0.04417816
236	0xbd14bbb7	-0.03631183
237	0xbab0f512	-0.0013500771
238	0x3c910ecb	0.01770725
239	0x3c66d8db	0.014089788
240	0x3c87acf4	0.016561963
241	0x3c8d26b4	0.01723037
242	0x3c7fa31e	0.015602855
243	0x3cc6d336	0.024270635
244	0x3d0e6330	0.03476256
245	0x3cf2dc4b	0.02964606
246	0x3c9f76f0	0.019465894
247	0x3c3cf887	0.011533863
248	0xbb95609f	-0.0045586373
249	0xbca68521	-0.020327153
250	0xbcddbd80	-0.0270679
251	0xbce4a021	-0.027908387
252	0xbc0c2ccd	-0.008555603
253	0xbc257ffe	-0.0101013165
254	0x3c3772ab	0.011196773
255	0x3c1faa36	0.009745171

layers.0.bias f4 [50]
0	0x3e0d7c43	0.13816933
1	0x3f44df19	0.7690292
2	0xbec539fd	-0.38520804
3	0x3e590993	0.21195059
4	0x3e2e4289	0.17017569
5	0x3ec22faa	0.3792699
6	0x3d52073c	0.05127643
7	0x3b107e56	0.0022047958
8	0xbe82cb01	-0.25545505
9	0x3eaa7e89	0.33299664
10	0xbc954d2f	-0.01822528
11	0x3ddcafb7	0.107757024
12	0x3eb7faa7	0.3593342
13	0x3e8a81a3	0.2705203
14	0xbe4c76db	-0.19967215
15	0xbe5e2770	-0.21694732
16	0xbe91092a	-0.28327304
17	0x3dfd0fc9	0.123565264
18	0x3e47e615	0.19521363
19	0xbec5cdc0	-0.38633537
20	0x3ea35522	0.3190089
21	0x3ab3923b	0.0013700196
22	0x3ebda7e5	0.37042156
23	0x3ecaa295	0.39577165
24	0xb94df1a3	-0.0001964034
25	0xbe2db731	-0.16964413
26	0xbd8d0531	-0.06885756
27	0x3e302e04	0.17205054
28	0xbdbaf8c8	-0.091294825
29	0xbeb6742d	-0.3563551
30	0x3db07cd7	0.08617561
31	0x3e138a68	0.14408267
32	0x3c198ad4	0.009371478
33	0x3eaaf4b9	0.33389834
34	0xbe1e6f9d	-0.15472265
35	0xbe96c892	-0.29449898
36	0xbe2edb09	-0.17075743
37	0xbdb88ac6	-0.09010844
38	0x3bb732fa	0.0055907937
39	0x3e1095c5	0.14119633
40	0x3ef71067	0.48254701
41	0xbe7f9e76	-0.24962792
42	0x3e29ba82	0.16575053
43	0x3f36f2aa	0.71464026
44	0x3c198a9e	0.009371428
45	0xbe9859ad	-0.29755917
46	0x3e1b5cb1	0.15172078
47	0x3e4319d7	0.19052826
48	0xbd84037e	-0.064459786
49	0x3e4794b2	0.19490317

layers.3.weight f4 [10, 50]
0	0xbba1fc32	-0.004943394
1	0xbd8f71d7	-0.07004135
2	0xbdb62aa9	-0.088948555
3	0x3ded2d41	0.11580897
4	0x3d0236f7	0.0317907
5	0x3d9dccbd	0.07705066
6	0x3db30a2f	0.08742177
7	0x3e27e023	0.16394095
8	0xbe48da52	-0.19614533
9	0x3dfd5751	0.1237017
10	0x3cb5134a	0.022103924
11	0xbd6b3948	-0.057427675
12	0xbe14c623	-0.14528708
13	0x3e037800	0.12838745
14	0xbe1cd88e	-0.15316984
15	0x3e0c2ec0	0.13689709
16	0xbd818937	-0.06325
17	0x3d85ea94	0.06538883
18	0x3dc788a5	0.0974286
19	0x3d2672a6	0.04063668
20	0xbda65852	-0.081223145
21	0x3e188eb2	0.14898184
22	0x3e60dede	0.21960017
23	0x3dadbab6	0.08482878
24	0xbe3d5378	-0.18488872
25	0x3d248581	0.04016638
26	0xbe01f4b0	-0.12690997
27	0xbe56fc71	-0.20994736
28	0x3cbeacb9	0.02327572
29	0xbd3bc7c4	-0.04584481
30	0x3b840ff9	0.0040302244
31	0x3db87585	0.0900679
32	0xbd0a3d27	-0.033749726
33	0xbe226b57	-0.1586126
34	0xbbba4d93	-0.005685517
35	0xbe1fa918	-0.15591848
36	0x3d677ce1	0.05651558
37	0xbe0f2bd2	-0.1398156
38	0x3e3b9c02	0.18321231
39	0xbe3adc55	-0.18248112
40	0x3d40a408	0.047031432
41	0x3d61f2bd	0.055163134
42	0xbe38db89	-0.18052496
43	0x3cedc0d8	0.02902262
44	0xbd9b458c	-0.075816244
45	0xbe5eb4f9	-0.21748723
46	0xbdf9662f	-0.12177693
47	0xbd86dbee	-0.06584917
48	0xbbf8efa1	-0.0075969254
49	0xbe55fb5a	-0.20896664
50	0xbe25fc4d	-0.16209526
51	0xbe667e49	-0.22509111
52	0x3dd4fe31	0.10400046
53	0x3e327ba8	0.17429984
54	0x3e3c1ca2	0.18370298
55	0x3d0b0b79	0.033946488
56	0xbe586946	-0.21133909
57	0x3e2a9fc3	0.16662507
58	0x3e80f41f	0.2518625
59	0xbd202702	-0.0390997
60	0xbcebe69a	-0.028796483
61	0x3cd1940e	0.025583293
62	0xbc125e90	-0.008933678
63	0xbe2028c3	-0.1564055
64	0xbe45c5b1	-0.19313695
65	0x3e2f718e	0.17133161
66	0xbe669767	-0.22518693
67	0xbdfbbcb9	-0.12291855
68	0x3e93f37d	0.28896704
69	0x3e4bdc81	0.19908334
70	0xbe476595	-0.19472344
71	0xbe00042d	-0.12501593
72	0xbc62f6f6	-0.013852825
73	0xbd91992a	-0.07109292
74	0x3e382798	0.17983854
75	0xbda2ca0d	-0.079486944
76	0x3e1a9c4f	0.1509869
77	0xbd7f5455	-0.062336285
78	0xbdfdac69	-0.123864
79	0x3d97661b	0.07392522
80	0x3e2ef67a	0.17086211
81	0xbd255712	-0.04036624
82	0x3e24276e	0.16030666
83	0xbe922957	-0.28547165
84	0x3d7d9f88	0.06191972
85	0x3bbbe85d	0.005734487
86	0x3ded7d10	0.115961194
87	0xbad7b7d9	-0.0016457989
88	0x3e4a09a3	0.19730239
89	0xbe19fc7c	-0.15037721
90	0xbe8bcbc5	-0.273039
91	0x3e1cc2cd	0.15308686
92	0xbe352589	-0.176901
93	0xbe70207a	-0.23449889
94	0x3e12ce28	0.14336455
95	0x3d1979a1	0.03746951
96	0xbe97e193	-0.29664287
97	0xbe4d8637	-0.2007073
98	0x3e07c730	0.13259578
99	0xbd8a3f36	-0.06750338
100	0x3e189c4c	0.14903373
101	0x3e0f1065	0.13971098
102	0xbe7a032e	-0.24415275
103	0xbd073504	-0.033009544
104	0xbe6b9a4f	-0.23008083
105	0x3dca3c9a	0.0987484
106	0xbdde21ac	-0.10846266
107	0xbd6ea406	-0.058261894
108	0xbe3a79f8	-0.1821059
109	0x3cd852cf	0.026406674
110	0x3d95f2d2	0.07321705
111	0x3d79ca42	0.060983904
112	0x3cad8994	0.021183766
113	0x3d7117aa	0.05886046
114	0x3e00a2a0	0.12562037
115	0xbe4deb04	-0.20109183
116	0x3bf8da87	0.00759441
117	0x3c87376e	0.016505923
118	0xbdebee4e	-0.115200624
119	0xbe1e1e15	-0.15441163
120	0x3dc376bc	0.09544131
121	0x3b6818b7	0.0035415122
122	0x3d74b1e2	0.059739955
123	0xbd309407	-0.04310992
124	0xbd9f8c2f	-0.0779041
125	0x3b21790f	0.0024638807
126	0xbe320c81	-0.17387582
127	0xbe138693	-0.14406805
128	0xbdaf3b6b	-0.08556255
129	0xbe823463	-0.25430593
130	0x3b3825bc	0.0028098663
131	0x3c549f1c	0.012977388
132	0xbb3e1dda	-0.0029009492
133	0xbcfb10de	-0.030647691
134	0xbe391276	-0.18073449
135	0x3d260740	0.040534258
136	0xbc917371	-0.017755242
137	0xbe095d96	-0.13414606
138	0xbd6f45bc	-0.058416113
139	0x3d637ee1	0.055540923
140	0x3ddf69ff	0.10908889
141	0xbd8bc853	-0.06825318
142	0x3d194c17	0.03742608
143	0x3d883578	0.06650823
144	0x3de01586	0.10941605
145	0xbda51743	-0.080610774
146	0x3e0f98de	0.14023158
147	0xbd192ac2	-0.037394293
148	0xbe5022f9	-0.20325841
149	0x3d4029a2	0.046914704
150	0xbe02760b	-0.12740342
151	0x3c0fe149	0.0087817395
152	0xbde2750f	-0.110574834
153	0xbdf5071d	-0.119642474
154	0x3dd50aba	0.104024366
155	0xbda8e64f	-0.08247053
156	0x3d67168c	0.056417987
157	0xbe87fe60	-0.2656126
158	0xbca0d3e9	-0.019632297
159	0xbc5f9ae1	-0.013647766
160	0x3dc87738	0.09788364
161	0x3dcbdf96	0.09954755
162	0x3e004c7d	0.12529178
163	0x3c7c6414	0.01540472
164	0x3ddd8418	0.108162105
165	0xbe42aaec	-0.19010514
166	0xbb880945	-0.0041514956
167	0xbd0fa599	-0.035070036
168	0xbe5bf37b	-0.21479599
169	0xbdec2cdd	-0.115319945
170	0x3d9c7fbe	0.076415524
171	0x3da321d8	0.079654396
172	0x3cd56b82	0.02605224
173	0xbcbdf39e	-0.023187455
174	0xbd9f5a0e	-0.077808484
175	0xbd8c4994	-0.068499714
176	0xb9c00aec	-0.0003662923
177	0x3d5d07a4	0.053962365
178	0x3d94fc47	0.072746806
179	0x3c7fab00	0.015604734
180	0xbe7e93b2	-0.24861029
181	0x3e04c036	0.12963948
182	0xbd569fd2	-0.05239851
183	0x3dbde736	0.092726156
184	0xbdafdafe	-0.08586691
185	0x3da7ba19	0.08189792
186	0xbe0b0a8e	-0.13578245
187	0x3d8791b3	0.06619587
188	0xbe48c691	-0.19606997
189	0x3dd5b18d	0.10434256
190	0x3c4cc79a	0.012498761
191	0xbe2cf127	-0.16888867
192	0x3de9184f	0.113815896
193	0xbca437b9	-0.020046102
194	0x3dc24243	0.09485295
195	0x3d93b946	0.072130725
196	0x3d824c2f	0.06362187
197	0xbe021862	-0.12704614
198	0xbd711d7b	-0.058866005
199	0xbdab4a86	-0.083638236
200	0xbcca674b	-0.024707457
201	0x3dd50d4d	0.104029275
202	0xbddba7e5	-0.10725383
203	0x3e2eae98	0.1705879
204	0xbe8b6c2a	-0.2723096
205	0x3d88bc76	0.06676571
206	0xbbd9a481	-0.006641925
207	0xbde10545	-0.10987333
208	0xbe5e5bba	-0.21714678
209	0xbd8aff5a	-0.06786986
210	0xbe43459e	-0.19069526
211	0x3d86c7e5	0.065810956
212	0x3dacd055	0.08438174
213	0x3d6aa476	0.05728575
214	0xbe0ae49f	-0.13563775
215	0xbb4a5178	-0.0030871313
216	0xbd41fb7a	-0.047358967
217	0x3d841983	0.064501785
218	0xbebbda23	-0.36689863
219	0x3c629d61	0.013831467
220	0x3c322604	0.010873321
221	0x3c3a07e2	0.0113544185
222	0xbdc1a323	-0.09454944
223	0x3d0bfccb	0.03417663
224	0x3d2834df	0.041066047
225	0xbd708b7a	-0.058726765
226	0xbe208737	-0.1567658
227	0x3da9eb78	0.08296865
228	0xbdcf9873	-0.10136499
229	0xbe8495ee	-0.25895637
230	0xbe5e6251	-0.21717192
231	0xbda29f87	-0.07940584
232	0xbd0169ba	-0.03159497
233	0xbd840f3d	-0.06448219
234	0xbcb261db	-0.021775177
235	0xbead7579	-0.33878687
236	0x3d6f04f8	0.058354348
237	0x3dc70211	0.09717191
238	0xbc372f3f	-0.011180698
239	0x3cd18170	0.025574416
240	0x3d817d40	0.06322718
241	0xbcb7d95a	-0.022442508
242	0x3d1ae304	0.037814155
243	0x3dd60881	0.10450841
244	0xbec76be9	-0.38949516
245	0xbdd2f108	-0.10299879
246	0x3cae01fd	0.021241182
247	0x3d3418be	0.04396891
248	0x3cfcc41c	0.030855231
249	0x3dcb6b8b	0.099326216
250	0xbe3f8ab8	-0.18705261
251	0xbbaa7681	-0.005202115
252	0xbd8db998	-0.06920165
253	0xbe6da934	-0.23209077
254	0x3d8b5435	0.068031706
255	0xb969dd18	-0.00022302975

layers.3.bias f4 [10]
0	0x3d0836cf	0.033255395
1	0xbeeea9ba	-0.46613866
2	0x3e8fac15	0.28060976
3	0xbdf7a430	-0.12091863
4	0x3ee3cb9c	0.4449128
5	0xbe17fd90	-0.1484282
6	0x3e9fca32	0.3120895
7	0xbe82c4e1	-0.25540832
8	0x3e661702	0.22469714
9	0xbeb4030f	-0.35158584
